…
4 x 4 nn.Conv2d(ndf * 8, 1, 4, 1, 0, bias=False), nn.Sigmoid() ) def forward(self, x): return self.main(x)D = Discriminator().to(device) 初始器论文作者提出网络初始参数采样自平均值0，标准差0.02的高斯分布。 123456789101112def init_weights(net): classname = net.__class__.__name__ if classname.find('Conv') != -1: nn.init.normal_(net.weight.data, 0.0, 0.02) elif classname.find('BatchNorm') != -1: nn.init.normal_(net.weight.data, 1.0, 0.02) nn.init.constant_(net.bias.data, 0)G.apply(init_weights)D.apply(init_weights)print(G)print(D) 输出： 1234567891011121314151617181920212223242526272829303132333435Generator( (main): Sequential( (0): ConvTranspose2d(100, 512, kernel_size=(4, 4), stride=(1, 1), bias=False) (1): BatchNorm2d(512, eps=1e-05, momentum=0.1, affine=True, track_running_stats=True) (2): ReLU(inplace=True) (3): ConvTranspose2d(512, 256, kernel_size=(4, 4), stride=(2, 2), padding=(1, 1), bias=False) (4): BatchNorm2d(256, eps=1e-05, momentum=0.1, affine=True, track_running_stats=True) (5): ReLU(inplace=True) (6): ConvTranspose2d(256, 128, kernel_size=(4, 4), stride=(2, 2), padding=(1, 1), bias=False) (7): BatchNorm2d(128, eps=1e-05, momentum=0.1, affine=True, track_running_stats=True) (8): ReLU(inplace=True) (9): ConvTranspose2d(128, 64, kernel_size=(4, 4), stride=(2, 2), padding=(1, 1), bias=False) (10): BatchNorm2d(64, eps=1e-05, momentum=0.1, affine=True, track_running_stats=True) (11): ReLU(inplace=True) (12): ConvTranspose2d(64, 3, kernel_size=(4, 4), stride=(2, 2), padding=(1, 1), bias=False) (13): Tanh() ))Discriminator( (main): Sequential( (0): Conv2d(3, 64, kernel_size=(4, 4), stride=(2, 2), padding=(1, 1), bias=False) (1): LeakyReLU(negative_slope=0.2, inplace=True) (2): Conv2d(64, 128, kernel_size=(4, 4), stride=(2, 2), padding=(1, 1), bias=False) (3): BatchNorm2d(128, eps=1e-05, momentum=0.1, affine=True, track_running_stats=True) (4): LeakyReLU(negative_slope=0.2, inplace=True) (5): Conv2d(128, 256, kernel_size=(4, 4), stride=(2, 2), padding=(1, 1), bias=False) (6): BatchNorm2d(256, eps=1e-05, momentum=0.1, affine=True, track_running_stats=True) (7): LeakyReLU(negative_slope=0.2, inplace=True) (8): Conv2d(256, 512, kernel_size=(4, 4), stride=(2, 2), padding=(1, 1), bias=False) (9): BatchNorm2d(512, eps=1e-05, momentum=0.1, affine=True, track_running_stats=True) (10): LeakyReLU(negative_slope=0.2, inplace=True) (11): Conv2d(512, 1, kernel_size=(4, 4), stride=(1, 1), bias=False) (12): Sigmoid() )) 损失函数和优化器损失函数选择交叉熵，在PyTorch中定义为 $$ l = -[y\\log(x) + (1-y)\\log(1-x)] $$ 这个函数与目标函数形式类似，我们可以通过设定$y$来选择使用损失函数的$\\log(x)$部分还是$\\log(1-x)$部分。 我们将真实图像的标签设置为1，生成图像标签设置为0。为D与G分别定义一个优化器，均为Adam，学习率0.0002，beta1=0.5 我们在每个epoch结束后向生成器输入一个固定的噪声，观察它的输出随着epoch的增加的变化。 12345678910# 损失函数criterion = nn.BCELoss()# 固定的噪声fixed_noise = torch.randn(
…
